Assets/RobotReacher.onnx (onnx, 119068 bytes, 9 tensors)

network_body.observation_encoder.processors.0.normalizer.running_mean f4 [89]
8.6984895e-05 0.54965955 3.9580314e-06 -0.45868638 -0.24086148 -0.24100329 0.4586014 -3.1233132e-05
-0.38535643 0.0002292055 0.025155012 1.3887564e-05 -0.0030174227 -0.032707926 0.5497582 -0.022129554
-0.4614979 -0.41615957 -0.007267353 0.29742572 -0.0929037 -0.3845456 0.2708505 0.026036706
-0.07723664 0.066016175 -0.15558279 0.925609 -0.08251042 -0.49691603 -0.19549322 -0.21567024
0.37787366 -0.013751724 -0.38289836 -0.18000464 -0.014144321 -0.17963682 -0.0155342715 -0.15560347
0.9257807 -0.082715064 -0.3114307 -0.29778025 -0.3806508 0.2309538 -0.10957629 -0.6355836
-0.16612801 -0.0019104793 -0.23316756 -0.01595727 -0.08274292 1.370042 -0.061234336 -0.32702047
-0.15401097 -0.3967075 0.15585342 -0.10527342 -0.6567788 -0.27283847 0.019037582 -0.29346666
-0.011330266 -0.05227122 1.3989381 -0.04611379 -0.25921693 -0.033727214 -0.2367576 0.17744724
-0.0475293 -0.38381138 -0.2965393 0.027508609 -0.3158314 -0.009593786 1.1292273 0.9965991
-0.10172189 -9.9999226e-05 0.0 0.055999592 1.1293274 0.9965991 -0.15772167 1.9037347
0.0
00000000: a96b b638 7db6 0c3f 3bcf 8436 f1d8 eabe
00000010: 64a4 76be 91c9 76be cdcd ea3e 5200 03b8
00000020: 704d c5be e256 7039 e211 ce3c a2fe 6837
00000030: f4bf 45bb bff8 05bd f4bc 0c3f 0a49 b5bc
00000040: 7449 ecbe de12 d5be fa22 eebb 2f48 983e
00000050: 4c44 bebd 29e3 c4be ebac 8a3e ee4a d53c
00000060: 3e2e 9ebd 7d33 873d 1851 1fbe b6f4 6c3f
00000070: 39fb a8bd c76b febe 602f 48be a9d8 5cbe
00000080: a878 c13e e94e 61bc 410b c4be 2353 38be
00000090: 95bd 67bc b7f2 37be 7583 7ebc 8456 1fbe
000000a0: f7ff 6c3f 8466 a9bd d873 9fbe a776 98be
000000b0: a9e4 c2be 277f 6c3e 8969 e0bd 9bb5 22bf
000000c0: 761d 2abe 0c69 faba 7ac3 6ebe d2b8 82bc
000000d0: 1f75 a9bd 895d af3f dbd0 7abd 3a6f a7be
000000e0: 0db5 1dbe 3f1d cbbe 0a98 1f3e 9799 d7bd
000000f0: a822 28bf 7cb1 8bbe b4f4 9b3c 4341 96be
00000100: 94a2 39bc 591a 56bd 6710 b33f d0e1 3cbd
00000110: 15b8 84be 8c25 0abd 9670 72be bbb4 353e
00000120: 15ae 42bd ed82 c4be 00d4 97be bc59 e13c
00000130: a7b4 a1be 412f 1dbc 858a 903f 1e21 7f3f
00000140: 9153 d0bd adb6 d1b8 0000 0000 d45f 653d
00000150: cd8d 903f 1e21 7f3f ca81 21be 94ad f33f
00000160: 0000 0000

network_body._body_endoder.seq_layers.0.weight f4 [128, 89]
0.031802975 0.030391306 0.14317168 -0.09370678 0.015202537 -0.013288766 0.030038295 -0.25087115
0.10423086 0.012569509 -1.5701738e-05 -0.10720769 -0.21749577 0.064348966 0.22271834 -0.11594742
-0.11603891 -0.15387422 -0.0955121 0.08793895 0.017310936 0.045135118 0.09014816 -0.113499284
-0.050984602 -0.1514776 0.15874225 -0.056767575 -0.24888141 0.08480444 -0.28185692 0.032441176
-0.013941925 0.05793406 0.007590886 -0.03813807 0.05762084 -0.13711365 -0.15827967 0.006381647
-0.003323648 -0.039816212 -0.09770241 -0.18816583 -0.018890098 0.021289952 0.0679283 -0.27662215
-0.089298464 -0.08019594 0.059048332 0.06296108 0.08875035 -0.02709719 -0.02952943 -0.28072754
0.36708418 0.037953787 0.097948916 0.12500995 0.030968424 -0.011997715 0.066160396 -0.11567683
-0.095360786 0.06939325 0.1022757 -0.17653778 -0.30968153 -0.07000865 -0.0034537564 -0.08425582
-0.12552626 -0.024581518 -8.776296e-05 0.028726242 0.00488949 -0.051923525 0.23658161 -0.008006938
0.4618899 0.12735195 -0.21284175 0.12986027 0.11514366 0.021959333 0.4152597 -0.04425347
-0.15322666 0.123538375 0.029757215 0.050671034 -0.10722765 -0.0746099 0.029753735 -0.096879594
-0.19536495 -0.24395047 0.13167833 -0.26118198 -0.022977646 -0.016304161 -0.06000182 -0.1785755
0.08847436 -0.01050306 -0.04075541 0.05721406 -0.18582426 0.06374329 0.1191964 -0.009453547
0.05231867 0.08812924 0.09191063 0.2673453 -0.11210042 0.13003607 -0.05991223 0.06731462
0.10535985 0.015782971 0.24112 -0.123928405 0.18938243 0.008370387 -0.013556722 -0.11686008
0.2496016 -0.03328911 -0.027254704 0.05108925 -0.14326973 -0.014675516 0.034503046 -0.04996833
-0.14126576 -0.27294114 0.06030549 -0.015528993 0.0644265 -0.13066798 0.12097384 -0.057295542
-0.01121294 -0.0037731049 0.12788466 0.033613745 0.051662482 -0.11101363 0.10376985 -0.19230735
0.0023825523 -0.08064118 0.12206379 0.007227877 0.10191351 -0.019724388 -0.004290142 -0.099097386
0.10226328 0.122148775 0.09364434 0.13518988 -0.13657437 0.024158398 0.056001455 0.06379766
-0.13656828 -0.10340029 -0.0012096148 -0.030558348 -0.07421586 -0.28060454 0.14074595 -0.24014828
-0.17324457 -0.0011698849 0.073703595 7.6435914e-05 -0.015346285 -0.11182786 -0.061046533 -0.05780496
0.22041142 -0.18552755 -0.017050337 -0.05832736 -0.142763 0.07228269 0.015454157 0.09901571
0.07815048 0.08398596 0.11154171 0.12076661 -0.0045919893 0.053090263 -0.068878345 0.1827048
0.19257194 0.06128447 0.08800381 0.005931245 -0.14881834 0.05567868 -0.0712643 -0.11355886
0.026862005 0.13542418 0.11083913 0.22842258 0.10468362 0.034454823 0.14257355 0.14476606
-0.0014118586 -0.037739947 -0.03194739 0.113827825 0.085681565 -0.14960802 -0.1775208 0.1632684
-0.075794294 0.02536583 -0.014382181 0.02107577 -0.10978676 0.18074438 0.13691327 -0.10142341
0.053880032 0.20071037 0.17835218 -0.051061638 0.25849375 -0.120530754 0.042581055 -0.09971834
-0.026845634 0.005687317 0.16945083 -0.05753437 -0.057061575 0.04205974 -0.030947449 -0.10816514
0.13113949 -0.0055512968 0.082585216 0.003168493 -0.07452513 0.015797544 0.12789191 -0.121297516
00000000: d643 023d 30f7 f83c 999b 123e 57e9 bfbd
00000010: 1014 793c 20b9 59bc df12 f63c 2f72 80be
00000020: fd76 d53d 58f0 4d3c 3ab7 83b7 b58f dbbd
00000030: 36b7 5ebe 64c9 833d 4710 643e d775 edbd
00000040: cfa5 edbd 3491 1dbe d99b c3bd 5619 b43d
00000050: aacf 8d3c 9adf 383d 999f b83d 5072 e8bd
00000060: 3bd5 50bd f21c 1bbe 548d 223e 1e85 68bd
00000070: c5da 7ebe f3ad ad3d 8d4f 90be 0ae1 043d
00000080: ac6c 64bc 444c 6d3d f8bc f83b aa36 1cbd
00000090: d403 6c3d 8567 0cbe 1114 22be 231d d13b
000000a0: 8fd1 59bb 5316 23bd 3318 c8bd 8bae 40be
000000b0: 68bf 9abc 4468 ae3c fe1d 8b3d 6ba1 8dbe
000000c0: 1de2 b6bd c53d a4bd aadc 713d bdf1 803d
000000d0: bec2 b53d edfa ddbc b4e7 f1bc 85bb 8fbe
000000e0: 75f2 bb3e 6e75 1b3d 7199 c83d 9c02 003e
000000f0: 7eb1 fd3c 1092 44bc 1a7f 873d f9e7 ecbd
00000100: 844c c3bd 0c1e 8e3d ec75 d13d 52c6 34be
00000110: 948e 9ebe b260 8fbd 6b58 62bb 518e acbd
00000120: f589 00be 2e5f c9bc 610d b8b8 4c53 eb3c
00000130: 0438 a03b c3ad 54bd 7342 723e 882f 03bc
00000140: d57c ec3e 8d68 023e 30f3 59be 17fa 043e
00000150: 70d0 eb3d 0fe4 b33c eb9c d43e 2043 35bd
00000160: 73e7 1cbe b001 fd3d 67c5 f33c 6e8c 4f3d
00000170: 2c9a dbbd 13cd 98bd 1bbe f33c cf68 c6bd
00000180: c00d 48be 27ce 79be afd6 063e a5b9 85be
00000190: 9e3b bcbc 4e90 85bc 78c4 75bd 7fdc 36be
000001a0: 0c32 b53d 0715 2cbc 25ef 26bd 4a59 6a3d
000001b0: b748 3ebe d88b 823d 3e1d f43d 0de3 1abc
000001c0: 1a4c 563d 1a7d b43d a43b bc3d 7ce1 883e
000001d0: e894 e5bd 2d28 053e 8766 75bd 3fdc 893d
000001e0: e8c6 d73d 4a4b 813c 29e8 763e 2dce fdbd
000001f0: 78ed 413e f323 093c 031d 5ebc 5654 efbd
00000200: 9097 7f3e 295a 08bd 4245 dfbc f642 513d
00000210: 4db5 12be 9371 70bc 1153 0d3d 97ab 4cbd
00000220: f9a7 10be f1be 8bbe e402 773d 516d 7ebc
00000230: 0af2 833d d4cd 05be 22c1 f73d bbae 6abd
00000240: 7bb6 37bc 3246 77bb 32f4 023e 91ae 093d
00000250: 0a9c 533d 1d5b e3bd 4a85 d43d 38ec 44be
00000260: 9824 1c3b 3427 a5bd 95fc f93d d4d7 ec3b
00000270: 08b8 d03d 0a95 a1bc 5294 8cbb 92f3 cabd
00000280: 696f d13d 2329 fa3d 9bc8 bf3d 376f 0a3e
00000290: 27da 0bbe d5e7 c53c c861 653d 59a8 823d
000002a0: 8ed8 0bbe 88c3 d3bd f08b 9eba 8055 fabc
000002b0: 7cfe 97bd 66ab 8fbe b51f 103e 6ee9 75be
000002c0: 0667 31be d356 99ba e9f1 963d 384c a038
000002d0: fc6e 7bbc 0106 e5bd ee0b 7abd e5c4 6cbd
000002e0: 88b3 613e effa 3dbe 26ad 8bbc abe8 6ebd
000002f0: 7730 12be f208 943d 6f33 7d3c c0c8 ca3d
00000300: 5c0d a03d d500 ac3d fb6f e43d 7c54 f73d
00000310: 6678 96bb 2d75 593d 1710 8dbd f816 3b3e
00000320: 9431 453e 6d05 7b3d 573b b43d e45a c23b
00000330: d663 18be 540f 643d 04f3 91bd 8c91 e8bd
00000340: b50d dc3c a3ac 0a3e a0ff e23d 9ce7 693e
00000350: 5e64 d63d 8020 0d3d cdfe 113e 8e3d 143e
00000360: 1d0e b9ba 3495 1abd 44db 02bd 901e e93d
00000370: d179 af3d d832 19be 03c8 35be d52f 273e
00000380: 0a3a 9bbd 00cc cf3c 3da3 6bbc 18a7 ac3c
00000390: e1d7 e0bd 0e15 393e fe32 0c3e 14b7 cfbd
000003a0: 4fb1 5c3d 0587 4d3e f4a1 363e 0226 51bd
000003b0: 4b59 843e d4d8 f6bd 7969 2e3d 2139 ccbd
000003c0: 60eb dbbc ac5c ba3b 8584 2d3e 29a9 6bbd
000003d0: 66b9 69bd d546 2c3d 8185 fdbc af85 ddbd
000003e0: 6e49 063e a7e7 b5bb 7022 a93d 7ea6 4f3b
000003f0: a2a0 98bd da69 813c 19f6 023e d56a f8bd

network_body._body_endoder.seq_layers.0.bias f4 [128]
0.064803205 -0.044308163 -0.06504073 -0.020305948 -0.024788165 0.006324633 -0.021928992 -0.031090626
0.018394195 0.017731417 0.013695161 -0.010009613 -0.010561488 0.09832405 0.0004313017 -0.02883544
-0.06175502 -0.05552229 0.075642616 -0.1320668 -0.019123932 0.044248573 -0.054546237 -0.012555818
0.074304074 -0.039858174 0.009302642 0.05333394 -0.032847963 0.012933821 -0.0014355453 0.056487158
0.101570204 -0.0154286055 -0.03891223 -0.04001449 -0.009735413 0.031358987 0.018128743 -0.038387824
-0.013909241 -0.048522536 -0.03778049 -0.01664378 0.010448634 0.0462228 -0.07275143 -1.8535663e-06
-0.007833984 -0.031469297 0.105789386 -0.016374663 -0.010650875 -0.04294219 0.0063287923 0.15859708
0.09074186 -0.012642414 0.046166338 -0.011035697 0.012305826 -0.07187854 -0.054187104 0.016506033
-0.027449796 0.0031432752 0.0009640385 -0.0014612444 0.033438463 -0.0031106067 0.095079154 -0.05137748
-0.011198169 0.050110627 -0.056483302 0.12667029 0.050051384 0.037299316 0.012154522 0.018491812
-0.018265057 0.08749392 -0.054315735 -0.025067523 -0.02237919 0.079679646 -0.016847683 0.0755629
-0.027812956 -0.038373876 0.07046439 -0.027490873 0.0050622076 0.035844304 0.017600494 -0.042142957
0.006530128 0.025768075 -0.020106398 0.09625966 -0.08294912 0.09497676 -0.00934181 0.027145427
-0.010465966 0.04914845 -0.0019235197 -0.01132692 -0.061598267 -0.009426634 -0.00275915 -0.018242406
0.035029925 -0.041258946 -0.024309602 -0.008682462 0.0063685765 -0.0011937735 -0.028975518 0.00037577318
-0.011256849 0.04672943 0.01936705 -0.06376619 0.030755986 0.0061679333 0.040713757 -0.037704952
00000000: 8bb7 843d 7a7c 35bd 1334 85bd a958 a6bc
00000010: 8d10 cbbc de3e cf3b 6ea4 b3bc c5b1 febc
00000020: 6caf 963c 7a41 913c ab61 603c 5cff 23bc
00000030: 170a 2dbc 1f5e c93d 5620 e239 4d38 ecbc
00000040: d5f2 7cbd 576b 63bd 84ea 9a3d 853c 07be
00000050: cba9 9cbc fe3d 353d e06b 5fbd ebb6 4dbc
00000060: bc2c 983d 5342 23bd 1c6a 183c b174 5a3d
00000070: 968b 06bd 61e8 533c e828 bcba 145f 673d
00000080: 0a04 d03d 43c8 7cbc 6e62 1fbd 3ce6 23bd
00000090: 4881 1fbc 4872 003d bb82 943c 8d3c 1dbd
000000a0: 96e3 63bc 91bf 46bd b7bf 1abd 8958 88bc
000000b0: bf30 2b3c 1e54 3d3d b4fe 94bd 0ec8 f8b5
000000c0: 1c5a 00bc f3e5 00bd 1ba8 d83d 2824 86bc
000000d0: 0281 2ebc 26e4 2fbd c261 cf3b 4667 223e
000000e0: ded6 b93d 2122 4fbc ea18 3d3d 11cf 34bc
000000f0: 609e 493c 0e35 93bd 4cf3 5dbd a937 873c
00000100: 65de e0bc 68ff 4d3b 87b7 7c3a 3a87 bfba
00000110: c5f6 083d 52db 4bbb dcb8 c23d 3171 52bd
00000120: 8678 37bc cd40 4d3d 095b 67bd dbb5 013e
00000130: ae02 4d3d 2bc7 183d c323 473c 247c 973c
00000140: 9aa0 95bc 0330 b33d 2d7a 5ebd 685a cdbc
00000150: 9054 b7bc 152f a33d 2704 8abc b9c0 9a3d
00000160: ffd7 e3bc ed2d 1dbd a24f 903d 8a34 e1bc
00000170: e0e0 a53b 7ad1 123d e92e 903c 189e 2cbd
00000180: affa d53b 9217 d33c 2cb6 a4bc c923 c53d
00000190: 3ae1 a9bd 2d83 c23d 640e 19bc 1660 de3c
000001a0: 7179 2bbc e34f 493d 9c1e fcba 8c94 39bc
000001b0: 774e 7cbd 2b72 1abc dbd2 34bb 1971 95bc
000001c0: 8a7b 0f3d 24ff 28bd ee24 c7bc e340 0ebc
000001d0: 7eaf d03b 6478 9cba 115e edbc 6c03 c539
000001e0: a66e 38bc 5c67 3f3d a6a7 9e3c d997 82bd
000001f0: faf3 fb3c 601c ca3b 78c3 263d 8270 1abd

network_body._body_endoder.seq_layers.2.weight f4 [128, 128]
0.012088361 -0.11002214 0.018647691 0.09875858 0.0024469586 -0.022600273 -0.046612598 -0.043371584
-0.0029883618 -0.0031184899 0.03783862 0.2655283 -0.15153892 -0.3189572 -0.013324207 0.25266218
0.04819321 -0.07539078 -0.062343482 -0.16728818 0.012015583 0.08563127 0.1739378 -0.031980067
-0.00831659 0.15359004 -0.05590107 0.07501843 0.071120076 0.13922232 -0.15260844 -0.06826792
-0.008177529 0.08771464 -0.11865718 0.05118113 -0.025871003 0.050194316 0.018747043 0.14116256
0.25177377 0.1298828 0.009613578 0.039214067 0.017226622 -0.08197898 -0.11648583 -0.1215474
0.0046184305 -0.05314987 -0.15531889 -0.052720036 0.006298517 -0.10521122 0.14494227 0.10724645
-0.075136594 0.060075197 0.018768566 0.09285598 0.1387162 0.023073122 -0.1834708 -0.08627518
-0.034609873 -0.298102 -0.08353198 -0.05644833 -0.04453118 -0.12136457 -0.112682454 -0.07304292
-0.14942624 0.07793587 -0.027694896 -0.20337184 0.22179799 -0.15792209 -0.08715515 -0.088063754
-0.015523728 -0.054913573 0.050357495 0.07741823 -0.10992313 0.014196599 -0.26784593 0.26243
0.048695974 0.14122494 -0.06537197 -0.08981596 0.17498727 -0.20016523 -0.07987561 0.017725041
-0.0013765106 -0.043561283 0.098384954 0.020065319 0.008468785 -0.10301373 0.120287105 0.073718965
-0.16535996 0.033386666 0.029572226 0.082748435 0.027638795 -0.109403655 -0.10304489 0.054013528
0.0762066 -0.23595853 0.09989081 0.13092642 0.07195285 -0.08898051 -0.09551549 -0.020303972
0.115485385 -0.016542573 -0.24936374 0.022011109 -0.08856205 0.14567234 -0.16091627 0.040582452
-0.050213672 -0.14266309 -0.050969284 0.079699084 0.09223074 -0.15844405 0.020366674 0.09223025
0.17617033 0.08767387 0.16229823 0.0016682938 -0.0011636028 0.042619005 -0.016364336 0.25717363
0.013371916 -0.0278229 -0.078781836 -0.015066667 -0.047633912 0.16033554 -0.15877847 -0.23675987
0.24992031 -0.010278726 0.08128354 0.041890938 -0.10899142 0.03925168 -0.10345574 0.09077097
-0.011240203 0.03518903 -0.18929178 0.10548801 0.11595979 0.14455837 0.17532507 0.07337781
0.068702705 -0.031122508 0.07680481 -0.20357741 0.11556364 -0.14740767 0.06749813 -0.11186584
-0.12887697 0.10382002 -0.0072317035 -0.098019436 -0.23153976 -0.1123573 -0.011416714 -0.15286647
-0.28101614 -0.2445961 -0.3100735 -0.021214584 0.040018447 -0.04390719 0.08021215 0.15076762
-0.063983515 -0.2509832 -0.0975737 0.13234887 -0.051469855 0.088481985 -0.18986863 -0.018152522
0.03814368 -0.036781117 -0.026669659 0.13218562 -0.015512524 -0.0128450785 -0.17080168 0.11151785
0.11048368 0.0709275 -0.072390646 0.21141893 0.06275993 -0.028545048 -0.06362274 0.040072218
-0.026466943 -0.12265936 0.1399919 0.048332214 0.0339402 -0.047963414 -0.077717096 -0.099455066
-0.003728097 0.013692304 -0.04917688 0.12558931 0.099548854 0.1459982 -0.103578515 -0.05584416
0.13630377 -0.019141499 -0.10252465 0.11264271 -0.09871735 -0.09535052 0.014771728 0.014115269
0.02491362 -0.08763135 0.0128562655 -0.04801292 0.06415317 0.00591398 0.004977933 0.14649431
0.16895227 0.022277636 -0.038133096 -0.05898603 -0.13407645 -0.017817754 -0.15301771 0.041639052
00000000: 430e 463c 4a53 e1bd 0bc3 983c f041 ca3d
00000010: 275d 203b 3524 b9bc daec 3ebd 67a6 31bd
00000020: 64d8 43bb 945f 4cbb abfc 1a3d 53f3 873e
00000030: 052d 1bbe 5c4e a3be c64d 5abc f05c 813e
00000040: 3e66 453d 7b66 9abd e15b 7fbd 984d 2bbe
00000050: 02dd 443c 735f af3d c01c 323e 88fd 02bd
00000060: 4f42 08bc b546 1d3e 85f8 64bd 43a3 993d
00000070: 67a7 913d 4c90 0e3e 6345 1cbe 0dd0 8bbd
00000080: 0bfb 05bc bca3 b33d 8902 f3bd 4ea3 513d
00000090: 6def d3bc 8e98 4d3d 6693 993c eb8c 103e
000000a0: 7ee8 803e ffff 043e 4582 1d3c ee9e 203d
000000b0: d81e 8d3c 98e4 a7bd 1f90 eebd d8ed f8bd
000000c0: 3456 973b aeb3 59bd ea0b 1fbe f7f0 57bd
000000d0: ca63 ce3b fb78 d7bd bf6b 143e 07a4 db3d
000000e0: 37e1 99bd 6911 763d 89c0 993c 472b be3d
000000f0: 9f0b 0e3e d803 bd3c c5df 3bbe 0bb1 b0bd
00000100: 15c3 0dbd d3a0 98be d112 abbd 5d36 67bd
00000110: 5466 36bd fd8d f8bd 0fc6 e6bd 8797 95bd
00000120: 3103 19be d79c 9f3d 68e0 e2bc b540 50be
00000130: 031f 633e 54b6 21be 667e b2bd c55a b4bd
00000140: 3c57 7ebc 0eed 60bd a943 4e3d 738d 9e3d
00000150: 611f e1bd da98 683c 1a23 89be 3a5d 863e
00000160: 6e75 473d 459d 103e bde1 85bd 6ef1 b7bd
00000170: dd2f 333e 1df8 4cbe d395 a3bd 1b34 913c
00000180: 086c b4ba 516d 32bd 0d7e c93d 0660 a43c
00000190: a9c0 0a3c ddf8 d2bd 1659 f63d f8f9 963d
000001a0: 1f54 29be 75c0 083d 7441 f23c 0378 a93d
000001b0: c16a e23c 060f e0bd 3309 d3bd 4a3d 5d3d
000001c0: 3512 9c3d 1d9f 71be 8e93 cc3d 9311 063e
000001d0: 045c 933d 6a3b b6bd a09d c3bd 8454 a6bc
000001e0: 9a83 ec3d 4a84 87bc 3559 7fbe a450 b43c
000001f0: 0560 b5bd 212b 153e 3cc7 24be c939 263d
00000200: daac 4dbd 4616 12be 2bc5 50bd 4639 a33d
00000210: 78e3 bc3d 283f 22be 03d8 a63c 37e3 bc3d
00000220: ff65 343e 5c8e b33d 8231 263e a7aa da3a
00000230: 0884 98ba 4491 2e3d 800e 86bc 43ac 833e
00000240: e115 5b3c daec e3bc 5f58 a1bd 2fda 76bc
00000250: c71b 43bd 002f 243e d396 22be 2e71 72be
00000260: 1ceb 7f3e 1a68 28bc fc77 a63d d595 2b3d
00000270: e536 dfbd 5fc6 203d 9ae0 d3bd 21e6 b93d
00000280: d428 38bc 5f22 103d b4d5 41be 190a d83d
00000290: 547c ed3d 1c07 143e 6a88 333e 1b47 963d
000002a0: 01b4 8c3d a1f4 febc d74b 9d3d 9976 50be
000002b0: a1ac ec3d 09f2 16be 763c 8a3d eb19 e5bd
000002c0: 53f8 03be 979f d43d edf7 ecbb 6abe c8bd
000002d0: c218 6dbe 961b e6bd 2b0d 3bbc 0789 1cbe
000002e0: 59e1 8fbe 6677 7abe f4c1 9ebe 35ca adbc
000002f0: 62ea 233d 07d8 33bd 4546 a43d d462 1a3e
00000300: ca09 83bd df80 80be b8d4 c7bd 7686 073e
00000310: 0ed2 52bd 0b36 b53d ec6c 42be 99b4 94bc
00000320: 8c3c 1c3d cca7 16bd 547a dabc ab5b 073e
00000330: 3e28 7ebc 2a74 52bc a3e6 2ebe 7863 e43d
00000340: 4545 e23d 7042 913d 8c41 94bd 347e 583e
00000350: 4788 803d 4ed7 e9bc a44c 82bd c422 243d
00000360: 34d1 d8bc d534 fbbd 095a 0f3e 00f8 453d
00000370: e104 0b3d 4975 44bd 242a 9fbd 19af cbbd
00000380: 1753 74bb af55 603c b26d 49bd 7c9a 003e
00000390: 45e0 cb3d 8d80 153e f920 d4bd d9bc 64bd
000003a0: 3793 0b3e a2ce 9cbc 72f8 d1bd 39b1 e63d
000003b0: 522c cabd 2247 c3bd 1e05 723c bb43 673c
000003c0: a617 cc3c 1178 b3bd 16a3 523c 32a9 44bd
000003d0: bd62 833d 0fca c13b ee1d a33b 9b02 163e
000003e0: d301 2d3e 977f b63c 7331 1cbd 569b 71bd
000003f0: 564b 09be 8af6 91bc adb0 1cbe b68d 2a3d

network_body._body_endoder.seq_layers.2.bias f4 [128]
-0.008504764 0.016071146 -0.012349663 -0.0012894882 -0.0110237375 -0.018270042 0.030904485 0.018275443
0.022920165 -0.015579638 0.0033811927 -0.035697486 -0.016050013 0.07035434 -0.007581905 -0.061174646
0.03147868 0.0039035582 0.027759794 -0.017778127 -0.010531126 -0.006760062 0.024600001 0.020136312
0.013367264 -0.025456028 -0.04198797 0.033942517 0.018396903 -0.017425453 -0.062287323 -0.021171156
0.016963063 0.0020146216 0.001982125 -0.025014771 -0.0131555125 -0.036105096 -0.055862162 0.018182999
-0.020176116 -0.011136704 -0.022653328 -0.0137268985 0.007724428 0.017105198 -0.0829016 -0.025062127
0.023195738 -0.005999331 -0.014756478 -0.0076801023 0.018083017 -0.0020559547 0.016513735 0.018508783
-0.020043379 -0.0383522 0.008141169 -0.06585228 -0.022708422 0.02554293 0.024540752 -0.001238907
-0.051756945 0.01669879 -0.036062017 0.005973548 0.006363096 -0.006131744 -0.016802875 -0.030222418
-0.00079270406 0.059285708 0.018121859 -0.013128001 -0.008882051 -0.021809367 0.013629629 -0.011902154
-0.020568045 -0.050685197 0.021431807 -0.018749282 -0.029524932 -0.00837769 -0.008078043 0.017320972
-0.008875036 -0.019082729 -0.032277923 -0.012330612 0.010248753 -0.0039689313 -0.031282023 -0.017380372
0.013535456 0.0280082 0.0028395224 -0.008208779 -0.040969502 0.0041029113 -0.028375193 -0.03612092
-0.008560625 -0.013293619 0.010874448 -0.036695402 0.031785157 -0.02247376 0.00668289 0.06591955
-0.00994802 -0.04398964 0.028598703 -0.021787701 0.0084842015 -0.04984177 0.035607576 -0.0013918752
-0.020663554 -0.042419318 -0.017970543 -0.07752903 0.03129726 -0.05416623 -0.03515078 -0.03772676
00000000: 9157 0bbc a3a7 833c 3e56 4abc 0b04 a9ba
00000010: e89c 34bc 0eab 95bc 672b fd3c 62b6 953c
00000020: 12c3 bb3c bd41 7fbc 0097 5d3b 8737 12bd
00000030: 517b 83bc f015 903d a171 f8bb 4492 7abd
00000040: caef 003d d7d2 7f3b 8268 e33c 6fa3 91bc
00000050: be8a 2cbc 8383 ddbb f185 c93c e8f4 a43c
00000060: 5e02 5b3c 2989 d0bc 94fb 2bbd 4f07 0b3d
00000070: 1ab5 963c d3bf 8ebc fe20 7fbd 226f adbc
00000080: 1ff6 8a3c be07 043b 8ae6 013b c7eb ccbc
00000090: 388a 57bc f0e2 13bd b9cf 64bd 83f4 943c
000000a0: 6248 a5bc b976 36bc 7993 b9bc c9e6 60bc
000000b0: 331d fd3b 3320 8c3c 50c8 a9bd 174f cdbc
000000c0: fd04 be3c 0996 c4bb 28c5 71bc 5ea9 fbbb
000000d0: d622 943c 32bd 06bb d047 873c bb9f 973c
000000e0: 0332 a4bc 3217 1dbd 8a62 053c 8fdd 86bd
000000f0: 0307 babc 683f d13c b009 c93c d262 a2ba
00000100: 17ff 53bd e7cb 883c c4b5 13bd c1bd c33b
00000110: 8581 d03b ccec c8bb 2fa6 89bc 0195 f7bc
00000120: 78cd 4fba 92d5 723d 4b74 943c d416 57bc
00000130: 0686 11bc 8fa9 b2bc cf4e 5f3c 4101 43bc
00000140: 517e a8bc 489b 4fbd c291 af3c 1898 99bc
00000150: 45de f1bc 9442 09bc c559 04bc b6e4 8d3c
00000160: 9968 11bc 6253 9cbc db35 04bd 5606 4abc
00000170: 63ea 273c cf0d 82bb 9421 00bd 4861 8ebc
00000180: d1c3 5d3c 7471 e53c 4817 3a3b 1d7e 06bc
00000190: a3cf 27bd b771 863b 1873 e8bc 88f3 13bd
000001a0: dd41 0cbc 7bcd 59bc be2a 323c eb4d 16bd
000001b0: 2731 023d e41a b8bc 25fc da3b d400 873d
000001c0: 05fd 22bc 7b2e 34bd d447 ea3c 1f7c b2bc
000001d0: 5201 0b3c e226 4cbd 40d9 113d 956f b6ba
000001e0: 9d46 a9bc e1bf 2dbd f636 93bc 8ac7 9ebd
000001f0: 8e31 003d 69dd 5dbd 44fa 0fbd 6087 1abd

action_model._continuous_distribution.log_sigma f4 [1, 6]
-1.3841962 -1.3451416 -1.3385417 -0.9498699 -0.59204185 -0.7171117
00000000: 572d b1bf 9a2d acbf 5655 abbf ac2a 73bf
00000010: 0e90 17bf a294 37bf

action_model._continuous_distribution.mu.weight f4 [6, 128]
0.001407748 -0.16001673 0.045808684 -0.0257127 0.053263478 -0.053043235 -0.06598698 0.0015791212
0.1338019 -0.008899679 0.002639667 0.046093423 0.066276155 -0.0144944815 -0.038857542 0.08969431
0.1404977 0.0635559 -0.012495517 -0.052092798 0.022855826 0.011537207 0.04588861 -0.0025994119
-0.026496308 0.021906478 0.014893445 -0.15994805 0.09923981 0.008890273 -0.07154383 -0.027593529
-0.13556185 -0.016321542 0.023212358 0.0023053074 0.0016733928 -0.013635987 0.08519675 -0.075914465
-0.037328284 -0.12216094 -0.04033444 -0.10768578 0.059410714 0.06484862 0.0050710216 -0.08887731
0.13124882 -0.078021474 0.0035601151 0.0487146 0.1005628 0.071890645 0.09927174 0.14497308
-0.019062415 0.033953547 0.058386765 0.00062708155 -0.021625109 0.15676884 0.0058166264 0.06819291
-0.028605405 0.053482827 -0.037931956 -0.054275222 0.024659174 0.037215184 0.01874575 0.07117867
-0.022085596 -0.031422757 -0.0039393352 -0.19348398 -0.0059534316 0.009933205 0.114555225 -0.040022574
-0.06465197 -0.01231569 0.027573178 -0.03308242 0.08910497 -0.04922491 0.050847154 0.16217145
0.041128475 0.07021809 0.013052073 -0.03772265 -0.06547362 0.047801778 -0.04935883 -0.015812686
0.06303854 -0.09555867 -0.022167617 -0.08714858 0.010152676 0.023481453 -0.016324852 0.010289541
0.037109118 -0.051264666 -0.010007402 0.011192267 0.030039584 -0.06993696 0.013342968 -0.2322428
0.09371565 -0.06919044 0.11817145 0.11441405 -0.12685525 0.0349956 -0.061821185 0.0371835
-0.020770457 -0.07844907 -0.00010390176 0.008435065 -0.0181917 -0.05423456 -0.07980885 -0.017241683
-0.10126565 0.037640903 -0.037584633 -0.117054544 -0.18342896 -0.0556878 -0.082625896 0.022215297
-0.16147494 0.048500147 -0.09752095 0.047694046 0.08111179 -0.053037364 0.17995284 -0.015671924
0.10449327 0.053100523 -0.20333147 0.072227195 0.03224659 -0.091590255 -0.014056269 -0.06256968
-0.12151003 0.038483173 0.04818657 -0.070924565 -0.0042862343 -0.024209121 0.08506559 0.020128261
-0.12829843 0.027509075 -0.07048296 -0.04549977 0.07829685 0.06733328 -0.045700032 0.089338996
0.014009667 -0.025919762 0.053487875 -0.08275596 -0.05860709 0.02058652 -0.10482216 -0.019831117
-0.053287957 0.06597158 -0.15413737 0.0037949674 0.078995965 0.00277296 0.051081456 0.0833602
0.046323996 -0.0588352 0.09981356 0.0027050332 -0.034113225 0.056644514 -0.04513526 0.085800566
-0.06411599 -0.0690359 -0.030851575 -0.003258043 0.018213863 -0.07940629 -0.033149887 0.02773915
0.070203416 0.03149222 0.0060225907 0.046429366 0.008076685 -0.017626181 0.078414924 0.007596218
0.016861971 0.02001909 0.058857918 0.014318157 -0.0034366746 0.014109657 0.05319607 -0.01320456
0.04654409 -0.09648724 0.003934256 0.024558589 0.06563474 -0.07214196 -0.021701485 -0.014372181
0.023152385 0.087884225 0.054613005 0.021900557 -0.061210554 0.01172729 0.056277763 -0.031139735
0.099781394 0.021738848 -0.004939996 0.034107935 0.0046982006 0.03858891 0.03243459 -0.015024475
-0.010302686 -0.026575457 -0.08808888 -0.029849827 0.031417176 -0.0023831262 0.013108992 0.0733691
-0.043610837 -0.07601009 0.074712604 -0.0020935794 -0.024164995 0.0011613853 0.12383594 0.052454952
00000000: 2f84 b83a 6ddb 23be e3a1 3b3d 71a3 d2bc
00000010: ce2a 5a3d dd43 59bd 2f24 87bd 84fa ce3a
00000020: 5e03 093e f6cf 11bc 43fe 2c3b 75cc 3c3d
00000030: cbbb 873d 437a 6dbc 1629 1fbd a7b1 b73d
00000040: a1de 0f3e 9829 823d ffb9 4cbc 425f 55bd
00000050: 243c bb3c 8e06 3d3c b2f5 3b3d e55a 2abb
00000060: c90e d9bc 3775 b33c a303 743c 6cc9 23be
00000070: 3e3e cb3d 82a8 113c 9285 92bd d30b e2bc
00000080: bad0 0abe c1b4 85bc d827 be3c a414 173b
00000090: bf55 db3a 7a69 5fbc a27b ae3d 0b79 9bbd
000000a0: 8be5 18bd 842f fabd ba35 25bd 5d8a dcbd
000000b0: a658 733d 5acf 843d d02a a63b 4f05 b6bd
000000c0: 1766 063e b9c9 9fbd d250 693b f688 473d
000000d0: dff3 cd3d 673b 933d fb4e cb3d d373 143e
000000e0: c828 9cbc e012 0b3d f626 6f3d bb62 243a
000000f0: 2427 b1bc 0388 203e 6699 be3b b9a8 8b3d
00000100: e255 eabc cf10 5b3d 8a5e 1bbd b24f 5ebd
00000110: 0902 ca3c f36e 183d b090 993c 1fc6 913d
00000120: daec b4bc 26b5 00bd 8a15 81bb aa20 46be
00000130: 0115 c3bb e2be 223c ee9b ea3d b6ee 23bd
00000140: 4168 84bd bfc7 49bc 25e1 e13c 6e81 07bd
00000150: ab7c b63d 0fa0 49bd 1b45 503d 4610 263e
00000160: 5576 283d 81ce 8f3d 5dd8 553c 1183 1abd
00000170: 0917 86bd cccb 433d 7c2c 4abd 9b89 81bc
00000180: 5a1a 813d 44b4 c3bd dd98 b5bc f47a b2bd
00000190: 6957 263c 2d5c c03c b2bb 85bc 7795 283c
000001a0: bbff 173d e6fa 51bd 16f6 23bc c55f 373c
000001b0: 9315 f63c 1c3b 8fbd 779c 5a3c 0ed1 6dbe
000001c0: feed bf3d b8b3 8dbd e003 f23d ea51 ea3d
000001d0: 58e6 01be 8c57 0f3d 3638 7dbd ba4d 183d
000001e0: ce26 aabc e8a9 a0bd d5e5 d9b8 3a33 0a3c
000001f0: c306 95bc 0f25 5ebd d372 a3bd 6e3e 8dbc
00000200: 5d64 cfbd 592d 1a3d 58f2 19bd 4bba efbd
00000210: cdd4 3bbe e418 64bd c437 a9bd dbfc b53c
00000220: b059 25be 17a8 463d 10b9 c7bd d55a 433d
00000230: f01d a63d b53d 59bd 8f45 383e 6862 80bc
00000240: 9100 d63d ef7f 593d 2036 50be daeb 933d
00000250: 0015 043d ac93 bbbd 444c 66bc 8824 80bd
00000260: 40da f8bd 88a0 1d3d 485f 453d e640 91bd
00000270: 8a73 8cbb 3552 c6bc de36 ae3d 06e4 a43c
00000280: aa60 03be b65a e13c 5f59 90bd f85d 3abd
00000290: 195a a03d 08e6 893d f52f 3bbd 5df7 b63d
000002a0: cd88 653c ae55 d4bc 1a16 5b3d f57b a9bd
000002b0: fd0d 70bd 10a5 a83c 00ad d6bd de74 a2bc
000002c0: 7944 5abd 1c1c 873d 30d6 1dbe fdb4 783b
000002d0: a3c8 a13d 8dba 353b ca3a 513d c1b8 aa3d
000002e0: 3bbe 3d3d 2efd 70bd 0d6b cc3d ed46 313b
000002f0: 4fba 0bbd 1404 683d c0df 38bd 35b8 af3d
00000300: 3f4f 83bd b262 8dbd 71bc fcbc e484 55bb
00000310: 3d35 953c c49f a2bd 2dc8 07bd 373d e33c
00000320: cfc6 8f3d fcfd 003d 2759 c53b b82c 3e3d
00000330: 1254 043c c864 90bc 0198 a03d b2e9 f83b
00000340: 1e22 8a3c 13ff a33c 0015 713d b496 6a3c
00000350: d539 61bb 312c 673c 1fe4 593d f057 58bc
00000360: 04a5 3e3d 1a9b c5bd eeea 803b 182f c93c
00000370: 826b 863d 2abf 93bd 50c7 b1bc 4c79 6bbc
00000380: 12aa bd3c a5fc b33d e3b1 5f3d cc68 b33c
00000390: ebb7 7abd d223 403c 8383 663d c218 ffbc
000003a0: 305a cc3d ab15 b23c b1df a1bb c3b4 0b3d
000003b0: 5df3 993b 680f 1e3d 22da 043d 3729 76bc
000003c0: 99cc 28bc c6b4 d9bc f167 b4bd a087 f4bc
000003d0: 4caf 003d 392e 1cbb 19c7 563c 8a42 963d
000003e0: 47a1 32bd 2eab 9bbd ec02 993d 6f34 09bb
000003f0: abf5 c5bc a039 983a b39d fd3d 01db 563d

action_model._continuous_distribution.mu.bias f4 [6]
-0.0033919718 0.0152178 -0.04324315 -0.027140219 -0.026523504 -0.031729385
00000000: d84b 5ebb 1454 793c bb1f 31bd 2a55 debc
00000010: d247 d9bc acf6 01bd

onnx::Div_51 f4 [89]
0.0043997704 0.0032858017 0.0042007356 0.30694675 0.3706928 0.3706038 0.30695918 0.021265522
1.1514343 0.018866716 0.064962864 0.0021014044 0.07668311 0.10925334 0.003795032 0.095716946
0.27553436 0.27280226 0.45858485 0.4057763 0.43854678 1.1674571 0.908303 0.38035244
0.21653067 0.29226816 0.51762176 0.38337478 0.52251184 0.24717401 0.36978486 0.38054812
0.4276688 0.58864427 1.1619797 1.0438803 0.70892614 0.49315888 0.49324608 0.51765335
0.38354027 0.5225135 0.4051193 0.36477935 0.36500958 0.43091658 1.8976758 3.900816
1.9342065 0.5959267 0.46093825 0.45268148 0.6405397 0.45517263 0.612653 0.37556636
0.3996999 0.36592814 0.50295675 2.4316688 4.07647 2.4755332 0.59486973 0.50649613
0.46779072 0.64627445 0.48480138 0.61876017 0.4279443 0.42452574 0.46973613 0.5100215
2.5822537 4.642332 2.7101223 0.6469123 0.5634237 0.5356978 0.7944872 0.475578
0.8870729 0.00040837668 0.00040837668 0.00040901647 0.7944872 0.475578 0.887073 0.56004816
0.00040837668
00000000: f32b 903b 9b56 573b 53a6 893b 2028 9d3e
00000010: 72cb bd3e c8bf bd3e c129 9d3e 0835 ae3c
00000020: 3362 933f 5f8e 9a3c 400b 853d b7b7 093b
00000030: 090c 9d3d 37c0 df3d 12b6 783b 3f07 c43d
00000040: d712 8d3e bdac 8b3e a2cb ea3e e9c1 cf3e
00000050: 3489 e03e 3c6f 953f 8c86 683f 8ebd c23e
00000060: 37ba 5d3e 2ca4 953e dc82 043f b349 c43e
00000070: 56c3 053f 2f1b 7d3e 7154 bd3e 34d7 c23e
00000080: 68f7 da3e 64b1 163f c0bb 943f df9d 853f
00000090: 2f7c 353f 527f fc3e c08a fc3e ee84 043f
000000a0: 645f c43e 72c3 053f cc6b cf3e 5cc4 ba3e
000000b0: 89e2 ba3e 19a1 dc3e 0ae7 f23f f8a6 7940
000000c0: 1494 f73f a78e 183f 1900 ec3e dec5 e73e
000000d0: 69fa 233f 630c e93e d4d6 1c3f 3c4a c03e
000000e0: 77a5 cc3e ef5a bb3e c6c1 003f 76a0 1b40
000000f0: 7172 8240 236f 1e40 6249 183f bba9 013f
00000100: 4482 ef3e 3e72 253f e337 f83e 1167 1e3f
00000110: 841b db3e 705b d93e 4181 f03e c590 023f
00000120: a543 2540 fc8d 9440 a572 2d40 0b9c 253f
00000130: 893c 103f 7e23 093f 8363 4b3f f67e f33e
00000140: 3617 633f 641b d639 641b d639 4371 d639
00000150: 8363 4b3f f67e f33e 3717 633f 515f 0f3f
00000160: 641b d639
